saved_weights.pt (torch, 76094 bytes, 6 tensors)

weight_ih_l0 f4 [256, 4]
00000000: ef97 003e d775 ca3d cb4b 8b3d da38 633d
00000010: 975d 52bd ea8f c13d 0512 213e 01b8 b83d
00000020: b4e8 123e 20ed e5bb 5895 333e ef54 263e
00000030: 8579 14bc d132 a2bc 614e 51bc 8356 93bc
00000040: 7d12 46bd 82be 9b3d ad3a f23d e627 92bc
00000050: ccee 8fbd 15dd 9a3d ece6 173e 6c87 223e
00000060: f6e1 9fbc e263 eb38 14c5 00be e898 f13d
00000070: 5d48 133e 5590 803d be45 c43d 0f29 21bd
00000080: 9d77 0d3e 4ce8 153e d075 a23d ab3d 63bd
00000090: f02b 673a f3e1 8cbd 3d97 22bd 4bd5 62bd
000000a0: ae5d 8cbd c0a2 a63c 786d ef3d 52fc e63d
000000b0: de51 373d f500 153c 689a 8ebd c6d2 17bd
000000c0: c8f4 ad3d 0d69 c33d 1238 d03d 8c50 873d
000000d0: 70ea 01bd cf40 0b3e 2e23 a5bd f0c0 b9bd
000000e0: a294 813d ef24 b9bd 7bab 06bd 9a55 bfbd
000000f0: d54e 203e 90c7 143d 7117 0a3d 63f4 1f3d
00000100: 280a 023e 9f80 3f3d 76d8 de3d 97d3 fe3d
00000110: e4e1 1b3e bb10 9cbc 1331 0b3d d6ba 563d
00000120: 479e fc3d 9027 9a3d 5dab 113d f00b a0bd
00000130: 595c 993d 6b83 c83c 9b33 453d 8f21 cfbd
00000140: 6998 91bd 8760 60bc 2e2a febb bc28 12bd
00000150: 379c 843d 5b4a 203d 2393 fdbc d89d 9cbb
00000160: e29d 293d 9c4d e43d 7192 af3d 397a 073e
00000170: 8c5d 713d 32ed fe3c 4395 883d 447c cc3d
00000180: a283 0e3e 2afa 8d3d 81f5 f93d 80f8 c93d
00000190: b9d8 3dbd 22c3 8c3d 762a 0d3e 2379 013e
000001a0: 1b98 fd3d 83f5 013e 077e c83c a738 cbbc
000001b0: 03de 9dbd 302f 813b 7d49 223e 57eb e63c
000001c0: 9a95 813d c6ad 8e3c d5b8 28bd eedd bbbc
000001d0: 2ed7 a3bd 968e 02be 3d51 703d 3175 c0bd
000001e0: 7218 9abd 3e79 4a3d 159b 753d e5b8 b73d
000001f0: c0b6 6f3d 737a 1cbb d5d5 503d 3580 0a3e
00000200: 88c5 11bd bf58 aabc 447d 70bd ff9d 0f3e
00000210: 5699 863d 8d7f 8cbc 1bd5 2e3e 9d25 6c3d
00000220: 99e3 85bd d750 20bd 450e 113e f59e d13d
00000230: 1cd8 bdbc a251 783b ab65 c43d 8104 713b
00000240: 882f ba3c 9f80 7f3d 27c7 e7bd 681d 9d3d
00000250: fca7 043e c20a 7c3c c5ac fabc cf2b 8e3d
00000260: dcdd 0e3c 6c22 76bc 2ee4 2abd d910 93bd
00000270: cc95 a6bd 1f49 113e c270 a6bd f407 133e
00000280: 14d2 a6bd 8ba4 993d be22 823d c83e 793c
00000290: 26b5 8f3d 4906 b43c 74cd 20bd 2c61 60bc
000002a0: 3b83 2e3c 12e8 99bc b3cf 0f3d f8ab ec3d
000002b0: 873d 373d 2c04 843d f051 d63d 190c 733d
000002c0: 47b5 a9bc 93e3 de3d 73e0 dd3c 2e44 c63d
000002d0: 9c54 0dbc 9a48 c9ba 0787 26bd c044 4dbd
000002e0: 26ee d63d 51a0 65bd 20d9 be3c 121b 213e
000002f0: 1fa3 173d b6f8 0abd ed03 103e ec10 153e
00000300: 1072 80bd 21d4 41bc 1694 a5bd ad1a 2b3e
00000310: c6aa 1d3e b1ea d23d 36d2 f03d 47fc 603d
00000320: c6c4 df3c 965f 033e 3dea 673d 60bc a63c
00000330: df0a 873c 20d2 d83d b5f4 643d de7a 633a
00000340: b439 88bd 2b94 9cbc abec a6bd e828 59bd
00000350: f2f9 1dbd d47c aabc 2686 0a3e c32f 0f3d
00000360: 64dd 883c e4b3 813d f34a 52bd a592 5cbd
00000370: 9d4d 4c3c a71e a63d 4faf aabd d058 b5bd
00000380: 20ff 523a 8c8d 16be 1970 3cbd 7413 9fbd
00000390: 9709 f83c dd00 adbd b85b d43d 7176 8cbd
000003a0: 409f 823d ed7a 013e 4a6f 24bd b832 5c3d
000003b0: 845c 9dbc b669 67bd 7588 173d 0ccd e23d
000003c0: be51 b9bc 7fa6 2f3d 6cd6 c4bc f7db bcbd
000003d0: 34a8 093d 9657 ae3d f8e0 fbbc 017e 5b3d
000003e0: 5fb2 c43c 6858 d83c 41ee 363d 50dd 383c
000003f0: 8019 d63d abaf 273d c817 773d c508 133e
0.12557958 0.098857574 0.06801566 0.05547414 -0.051358785 0.094512776 0.1572953 0.09019471
0.14346582 -0.007016793 0.17537439 0.16243337 -0.009062176 -0.019799622 -0.012775035 -0.017985588
-0.048357476 0.07604696 0.11827598 -0.01784129 -0.07027969 0.07561699 0.14834183 0.15871972
-0.019516926 0.00011224278 -0.1257518 0.11796743 0.14383073 0.06277529 0.09583615 -0.039345797
0.1381516 0.14639395 0.07932627 -0.055478733 0.0008818498 -0.06879034 -0.039695013 -0.055379193
-0.068538055 0.020341277 0.116908014 0.11278595 0.04475581 0.009094466 -0.069630444 -0.037066244
0.08493954 0.09541521 0.101669446 0.0660716 -0.031717718 0.13598941 -0.080633506 -0.09070003
0.063271776 -0.09040248 -0.03287838 -0.09342499 0.15655072 0.03632313 0.03371376 0.039051425
0.12699187 0.046753522 0.108811304 0.12442701 0.15222889 -0.019050946 0.033982348 0.052424274
0.123348765 0.07527077 0.035563815 -0.07814777 0.07488317 0.024476727 0.048144918 -0.10113823
-0.07109148 -0.013694889 -0.007756493 -0.03568338 0.06475108 0.03913341 -0.03095395 -0.0047795586
0.041410334 0.11147615 0.08572853 0.13230218 0.058927104 0.031118963 0.066690944 0.09984639
0.13917401 0.06932481 0.12205029 0.09861851 -0.04634926 0.06873156 0.13785729 0.12643866
0.123825274 0.12691312 0.024474157 -0.024807287 -0.07708361 0.0039423928 0.15848346 0.02818839
0.06327362 0.017416846 -0.041191895 -0.022932973 -0.08000027 -0.12749705 0.058671225 -0.093973525
-0.07524194 0.04943203 0.05996235 0.08970813 0.058523893 -0.0023876696 0.050985176 0.1352547
-0.03558877 -0.02079427 -0.058713213 0.14025114 0.06572215 -0.017150665 0.17073481 0.05765306
-0.065375514 -0.039139595 0.141656 0.10235397 -0.023174338 0.0037890454 0.09589704 0.0036776366
0.022727743 0.062378522 -0.11317282 0.076716244 0.12954706 0.015383424 -0.030599961 0.069419496
0.008719888 -0.015022855 -0.041721515 -0.07180948 -0.0813404 0.1418805 -0.081269756 0.14358503
-0.08145538 0.07502087 0.06354283 0.015212722 0.07016973 0.021975653 -0.039258435 -0.013695043
0.010651405 -0.018787418 0.035110187 0.11556238 0.04473641 0.06446108 0.10464847 0.05933771
-0.020716323 0.1088325 0.027084565 0.09680973 -0.0086261295 -0.001535672 -0.040656116 -0.050114393
0.10494642 -0.056061093 0.023296893 0.15732983 0.0370208 -0.033928595 0.14063998 0.14557236
-0.06271756 -0.011830361 -0.08084886 0.16709395 0.15397176 0.1029867 0.117588446 0.05492809
0.027315509 0.12829432 0.05661987 0.020353496 0.016484676 0.10586953 0.055897433 0.00086776714
-0.06651631 -0.01911362 -0.081506096 -0.053017527 -0.038568445 -0.020811476 0.13527736 0.03495766
0.01670713 0.063331395 -0.05134101 -0.05385079 0.012469676 0.08111315 -0.08334219 -0.0885483
0.0008048881 -0.14702433 -0.046005342 -0.07767382 0.03027801 -0.0844743 0.103690565 -0.068585284
0.06378031 0.12644549 -0.040145196 0.053759307 -0.019209154 -0.0564973 0.03699537 0.11074266
-0.022621986 0.042883392 -0.024028026 -0.092216425 0.033607677 0.085127994 -0.030746922 0.053586964
0.024010835 0.026409343 0.04466081 0.011283234 0.104540825 0.040939014 0.060325414 0.14358814

weight_hh_l0 f4 [256, 64]
00000000: 1f8d a5bd d038 04be 8989 bc3d bc95 6c3e
00000010: 930a cfbd 3225 463d 60a0 f23d 0d31 90bd
00000020: f2fe df3d 8888 453e 45ea 04be 63e5 25bd
00000030: 1787 d7bc 5911 073b caca 8fbc 3004 e0bc
00000040: 8ea6 333d 5aef 1ebe b46a 543d b6a0 443c
00000050: 29ce 023e d837 1d3c 990e 15be 9b88 9f3c
00000060: 93e7 31bd 216e febd 771b 1d3d b0c1 b83d
00000070: 68d4 36be 9d5e dd3c 7848 33be 1b35 073d
00000080: 3cb3 c9bd 111b 033d d23d 09be 5d68 96bd
00000090: ec85 153d 3b8b 09be a41a 053d dfaa af3d
000000a0: 00d5 d6bd 4fe4 103e f010 36be 2d6e 8cbd
000000b0: 69c4 533e d5a6 573c 1aca fe3c 45fa 23be
000000c0: 54d4 8dbd 5128 96bd 39f0 3b3e 960f 8eba
000000d0: 0895 553e fb28 423e 73e9 c93d ab9c 4cbd
000000e0: 995d 14be e66b 04bd 8a06 2fbe 402f 7e3c
000000f0: 1986 f53c 63a2 803d 1bf7 3b3d 189a 47bd
00000100: a238 263d 1430 003c dd11 d5bd 04bb 353e
00000110: 9c65 05be 0393 efbd d203 233e dc31 893b
00000120: cc36 cd3d e80a 15bd 4237 383d 5d07 9b3d
00000130: 8f75 3dbc 8bd0 1f3e 025b 9abd bb1e d43b
00000140: 8974 273b 28c7 c7bd 3699 d13a e1a3 a5bc
00000150: e1d6 3c3e 9587 1a3e 043e 9ebd e1c3 783d
00000160: bce8 363d aa54 a1bd 0080 243d f70e 1f3e
00000170: b450 88bd 914f 82bd 9968 16bc 37cd 973d
00000180: 2797 a5bd 4fd9 f63d ae0c 20bd 8019 233c
00000190: ef7d 9ebb fcdf e53d 5087 043e 1e2f 4d3d
000001a0: b942 d2bb c55e 0b3b 7e46 0d3d aba1 19be
000001b0: 3957 013e fdce 41bd e8b2 0a3e c17d 09be
000001c0: 1702 403d 8379 833d ff7a 80bd eada a63d
000001d0: 8ac6 e13d 0897 2cbd 674f bf3d b59d 933d
000001e0: c4df dfbd ae13 dbbd 501f cabd 1890 bf3d
000001f0: 0abd bebd 42ba 6abd 499b 4d3e a336 953d
00000200: 1753 e9bd d66b cbbd d2dc c4bc f7b6 af3c
00000210: bd92 893d a10e 8d3d c477 a4bd 6e09 9bbc
00000220: 2a13 1d3c 01cd 3f3d 5eba 58bb e8c3 1dbe
00000230: 2447 03be 483b b63b f313 1bbe 2993 073d
00000240: a674 e2bc 9bfa 673d 3740 e8bd 9109 e03d
00000250: ce97 c1bd a060 dbb9 8383 10bd ec43 d8bc
00000260: db84 b4bc c5bc 82bd 0323 b6bd 9c29 b7bd
00000270: c6b8 0d3a 3d2b ddba 8ce0 cb3d b937 203d
00000280: 61f5 083e ea7f e8bc 6914 8dbc 7ba7 d73d
00000290: b82a f13d d06c 453d 26e3 2bbe 7795 fbbd
000002a0: 3dab bb3d f00c 16be 1479 dbbc 5905 a23c
000002b0: f553 2fbb 3c6d ab3c ada3 7a3d 24fe ac3d
000002c0: 257b acbc 66f8 92bd 5bed 1f3d 9ad2 aa3d
000002d0: e78b f83c 55bc 0a3d 6e4d 973d d531 663d
000002e0: b73c f93d 5c34 013e 518b eabc 35f3 05be
000002f0: a31a f2bd 620b e2bd fdbf 67bc 1228 483d
00000300: 7ecb dabd 7b8f babd 4d53 9a3d 50d1 69bc
00000310: 6a9a 003e 1289 813d b4e1 43bd b8b2 ab3d
00000320: 8713 0fbe 1b18 eebc f79d f6bb 622f d2bd
00000330: 7416 9abd 8b52 403b 0cc9 26be 971e c93d
00000340: 0580 84bc c379 78bd be0d 9f3d ced5 92bd
00000350: 95c9 3cbe 2d48 38bc 347b 853d e452 153d
00000360: e167 13bd e932 b03d 19de b43c d2a6 9a3d
00000370: b294 da3d 7e8a 973d b6b1 0ebd 376f 8d3d
00000380: 0c3b 013e d7a9 33be 17a4 9cbb 46a4 c9bd
00000390: 3872 aabd 6521 373d 5419 99bd 26d6 e1bd
000003a0: d597 75bd 1bcc 063d e4e2 e43d 68af 763d
000003b0: 11fa e6bd 9e62 053e 6a4e 9a3d 03fb ccbd
000003c0: 6f2e 083e c6b4 f73d 6b30 a93c 6c5f debd
000003d0: 3630 33be e20c a93c 7aab edbd bd5e 60bb
000003e0: c24e bdbd 99b2 a53d d941 b4bd 967c d2bd
000003f0: 3388 99bc 5346 95bd 3c5a 023d d1eb 8cbb
-0.08083557 -0.12912297 0.0920592 0.23103994 -0.10109439 0.048375316 0.11846995 -0.07040606
0.10937299 0.19290364 -0.12979992 -0.040501963 -0.026309533 0.0020609705 -0.017552752 -0.027345747
0.04386001 -0.15520993 0.051859573 0.012001207 0.12773956 0.009595834 -0.1455635 0.019474318
-0.043433737 -0.12423349 0.03835627 0.09021318 -0.17854464 0.027022654 -0.17508113 0.03300963
-0.09848639 0.032008234 -0.13402489 -0.073441245 0.03650467 -0.13432018 0.03249611 0.08577513
-0.10489845 0.14149593 -0.17779899 -0.06856952 0.20680393 0.013162334 0.031102229 -0.16013439
-0.06925264 -0.073319085 0.18353356 -0.0010838385 0.20857632 0.18960945 0.0985898 -0.049954098
-0.1448883 -0.032329462 -0.17092338 0.015514195 0.02997117 0.06280973 0.045889955 -0.04873094
0.040581353 0.007823963 -0.10403798 0.17747122 -0.13027042 -0.11697962 0.15919426 0.004186852
0.10020217 -0.036387354 0.044974573 0.07569764 -0.011563673 0.15606897 -0.075368896 0.00647339
0.0025551638 -0.09754783 0.0015991095 -0.020219745 0.18441345 0.15090783 -0.07726672 0.06073368
0.044655547 -0.078774765 0.040161133 0.15533052 -0.06656018 -0.06362832 -0.009180211 0.074121885
-0.08085471 0.12053167 -0.039074592 0.00995481 -0.00483679 0.11224362 0.12942243 0.050093763
-0.0064166454 0.0021266204 0.034491055 -0.15003078 0.12630929 -0.04731654 0.1354481 -0.13426878
0.046876993 0.06419661 -0.0627346 0.08147223 0.110241964 -0.042136222 0.09341317 0.072078146
-0.10931352 -0.10697113 -0.09869254 0.093536556 -0.093134 -0.057306536 0.20078768 0.07285812
-0.11392801 -0.099326774 -0.024031077 0.02144955 0.06717441 0.06887556 -0.08030656 -0.018925395
0.009587089 0.046826366 -0.0033070068 -0.15406764 -0.12820107 0.005561266 -0.15144329 0.033099327
-0.027643513 0.05663548 -0.11340373 0.10939325 -0.094527826 -0.00041842926 -0.03528167 -0.026399575
-0.022036007 -0.06383661 -0.08893397 -0.08943483 0.00054062565 -0.0016873848 0.09954938 0.03911564
0.13374855 -0.028381307 -0.017221646 0.10529991 0.11775726 0.048199475 -0.16785869 -0.122843675
0.091635205 -0.14653373 -0.026791133 0.01977794 -0.0026752923 0.02092611 0.06119125 0.08446911
-0.021054814 -0.071762845 0.03904472 0.0834095 0.030340148 0.033871014 0.073878154 0.056199867
0.121697836 0.1261763 -0.028630884 -0.13081057 -0.11821487 -0.11037327 -0.014144895 0.04886634
-0.10683344 -0.09109398 0.075354196 -0.014271095 0.12558904 0.06324972 -0.04782267 0.08383697
-0.13972293 -0.029064229 -0.007526155 -0.10262944 -0.07523814 0.0029346074 -0.16287631 0.09820288
-0.016174326 -0.060662996 0.07766293 -0.07169686 -0.18436272 -0.011247677 0.0651764 0.036456004
-0.03598774 0.0860346 0.02207856 0.0755135 0.10672893 0.07399462 -0.034837447 0.06905978
0.12620181 -0.17545258 -0.004780303 -0.09845786 -0.08322567 0.044709582 -0.07475534 -0.11027174
-0.05995925 0.032909494 0.111760885 0.060225874 -0.11278165 0.130259 0.075344875 -0.10008814
0.13298963 0.12095027 0.02065297 -0.10858044 -0.1749886 0.020636026 -0.11604972 -0.0034236156
-0.092435375 0.080907054 -0.08801622 -0.10277669 -0.018741703 -0.07288804 0.031824335 -0.0043005724

bias_ih_l0 f4 [256]
00000000: a9e4 d5bd 7e1e 0fbe 060d 77bd f03d f5bd
00000010: 9e3b 393c 9dd6 783d 8ddc 623c 0429 443d
00000020: b831 37bd bcbe 17bb e219 653b 00fb bb3d
00000030: 4ca9 8e3c 6dbe 133e 5d5b c2bd 3f39 2bbd
00000040: 3c45 febd 4be0 ccbc 5221 c43c 19da f23c
00000050: d211 133e 26cc 1a3d 0dab 74bd b04a 7f3d
00000060: d3e6 6b3d 3c17 00be eaac 77bd 7268 053d
00000070: 34cf adbd a739 ff3a f609 b43c b49c 1a3e
00000080: c130 2fbd 3e4e b03d e5c1 4d3d 0e2b 53bd
00000090: 4e32 1bbe f583 c73d cd5f 82bd 7233 acbd
000000a0: 536f a43d 1f2c dd3c 6e83 e1bd 6ed1 4ebd
000000b0: 0d80 b43d 69eb d23d 14f5 8d3b e8d5 813d
000000c0: 4e5c 38bd ccad de3d 0cd8 e8bd f720 0dbe
000000d0: 89ad 6e3c 8b2b 71bd 1a15 a9bc 142b 02ba
000000e0: 730f b43d 6c44 3e3d ac1c 94bc c4c7 de3b
000000f0: cca6 103e 3382 6e3d c472 a63d 3de1 8dbd
00000100: d5bb 0dbe 234a 9cbd 5394 7f3d 6d07 acbd
00000110: d437 68bb 305c 7cbd c050 303d ee36 c3bd
00000120: 7aa1 ba3b 0497 60bc 4c01 3c3d dde5 a33d
00000130: 76b6 ecbd bcdb c23d a7fa 93bd 7815 0fbd
00000140: fcbf 09be efb3 b53d 507c 10bd 1410 aa3b
00000150: 5429 3ebd bc6b d6bc aaa1 2c3c 6ffa 063b
00000160: 8c15 e9bc 1fdf aab9 9695 8d3c b95d 96bc
00000170: 7e38 c13d 8b6f 183e 6364 103e fa6f 21bd
00000180: a5c7 8ebd 06af 1abe 5e11 113e 6868 983d
00000190: b8d0 36be 1419 a2bd f557 943d 42bd c03d
000001a0: f100 953d 5dbf 98bd 51d3 c43d ba31 06be
000001b0: ea7e 013e b071 a53d f924 4fbd e184 3a3d
000001c0: 6979 3c3c a281 0fbd a865 1dbe ff8f 883c
000001d0: 17dc 943d 5d1b 7c3d 9eaa 553d d141 603c
000001e0: 19d4 753d 8630 91bd 4333 54bd 4e85 dc3c
000001f0: 61ae ccbb f104 87bd 6ed6 b63d 982f 543b
00000200: d6fd a7bc 6141 bfbd d2c7 113e c5a3 93ba
00000210: 86a8 1c3d a6bd 6abd e0f1 1bbe b034 6bbd
00000220: 3d30 913b b391 1b3c 2d72 4dbd dc4b 62bd
00000230: 1fca e3bc 91ad a3bd d6a3 abbd 6b5a ddbc
00000240: 6914 113c 1c80 9ebd 9070 88bc b2d2 12be
00000250: 507e ca3d b5eb 3bbe dd6d cabd df56 d8bd
00000260: eb2b 15bc 4bb8 29bc 0b63 2abc 48de 0a3d
00000270: 7f84 87bb 1aa3 6abd f232 9e3c 0401 b6bd
00000280: b2f6 4d3b 21bf fc3d a950 033e 1198 86bd
00000290: bd78 23bc 6bd8 66bd a5ab b0bd 9b83 00be
000002a0: 1590 af3d 65e8 203c 981d 20bd aa6c 203d
000002b0: 5827 d7bd 2cd1 9bbd 1ba9 60bb b978 39bd
000002c0: fb26 063e 7383 1c3e 8a09 c13b ceb9 8cbd
000002d0: 2fba 233c fd62 b9bd 7bf2 a6bd 7073 c7bd
000002e0: 6cc3 073e 1fac ce3d 3c36 d13d 9a2e eebd
000002f0: 0f65 6cbd e12b 693c 541d 5f3d af8d ccbc
00000300: fbc6 07bd c514 743d 344e 253e 8b7c 86bd
00000310: ad78 543d 03f9 1f3e d047 9cbc 2aea ef3d
00000320: ab56 18bd c07a 0c3e ec55 d63d c772 3cbd
00000330: 48bc 91bd 097c a43c a16a c0bc bca9 093e
00000340: 35af d9bc 2760 d4bd 00f1 b93d 479a 29bd
00000350: 0c20 9d3c 0318 50bd c6b0 08bd 7b7b 2a3d
00000360: 7345 eabc af90 843d a0d3 133e ceb9 f23d
00000370: 0c4e f43d 9c0c c73d 78b8 d03c 1ae5 68bd
00000380: 89e0 353e 4e4f 623d befa a83d c9a3 0a3e
00000390: 264b 953d f7a2 cc3d 5733 cdbc 5b43 1e3e
000003a0: 29a4 d43d aff0 043e d840 0f3e 6345 c43d
000003b0: 46b9 b7bd 203a 5f3c 49f5 0e3e dee3 b93d
000003c0: 23b2 91bb bcf6 a93d 8f0f 8c3d 10f2 07bd
000003d0: 0b6b 70bd 57dd c43d ace1 09bd b238 4c3d
000003e0: 0d41 51bd 6d7a 4dbd 0f16 b63c fad6 e53d
000003f0: 67a9 abbd 277a 293e 017a 80bd bb6c cd3d
-0.10444004 -0.13976476 -0.060315154 -0.11974704 0.011305718 0.060751546 0.013846529 0.047890678
-0.04472515 -0.0023154458 0.0034958054 0.09178734 0.017414711 0.1442811 -0.094900824 -0.04180264
-0.12415549 -0.025009295 0.02394167 0.029645013 0.14362267 0.037792347 -0.05973344 0.062327087
0.057593178 -0.12508863 -0.060467638 0.03257031 -0.084867865 0.0019472138 0.021977406 0.1509884
-0.042771105 0.086086735 0.05023374 -0.051554732 -0.15155908 0.09741966 -0.06365929 -0.0840825
0.08029046 0.026998578 -0.11011396 -0.050492696 0.08813486 0.10298807 0.004332194 0.063396275
-0.045009904 0.10872993 -0.11369333 -0.13782106 0.014567741 -0.058879416 -0.020639945 -0.00049655256
0.08792009 0.04645197 -0.018080078 0.0067987163 0.14126128 0.058229636 0.081273586 -0.069277264
-0.13841183 -0.07631328 0.062397312 -0.08399854 -0.0035433667 -0.061611354 0.04304576 -0.095319614
0.005695519 -0.01370788 0.045899674 0.08002827 -0.11558239 0.09514567 -0.072255425 -0.034932584
-0.13452142 0.0887221 -0.035274804 0.005189905 -0.046426132 -0.026174419 0.010536591 0.0020596047
-0.028452657 -0.00032591165 0.017283242 -0.018355237 0.09434603 0.148863 0.14100794 -0.03941343
-0.06971673 -0.15105829 0.14166781 0.07441789 -0.17853057 -0.079149395 0.07243339 0.09411098
0.0727557 -0.07458375 0.09610618 -0.13104907 0.1264607 0.08078325 -0.05057237 0.04553688
0.011503556 -0.035035737 -0.1537081 0.016670225 0.07268541 0.061549533 0.052164666 0.013687567
0.060016725 -0.07089333 -0.0518067 0.026919033 -0.0062463735 -0.065927394 0.08927618 0.0032377
-0.02050678 -0.09338642 0.14236382 -0.0011264017 0.038246654 -0.05730977 -0.15228987 -0.057423294
0.0044307993 0.009495187 -0.050157715 -0.055248126 -0.02780634 -0.079920895 -0.083808586 -0.027020654
0.008854964 -0.07739279 -0.016655236 -0.14338186 0.098873734 -0.18351634 -0.09884236 -0.10563444
-0.009104709 -0.01035888 -0.01039959 0.03390339 -0.004135668 -0.057284452 0.019311402 -0.088869125
0.003142756 0.123411424 0.12823738 -0.06571973 -0.009977517 -0.056358736 -0.086264886 -0.12550204
0.08572403 0.009821032 -0.039090723 0.03916613 -0.10505551 -0.07608256 -0.0034280482 -0.045281146
0.13100807 0.15284519 0.0058910297 -0.06871377 0.00999312 -0.09052084 -0.08151718 -0.09738815
0.13258141 0.10091423 0.102154225 -0.11629982 -0.057713564 0.014231653 0.05447133 -0.024969904
-0.033148747 0.05959012 0.16143113 -0.065667234 0.051872898 0.15622334 -0.019077212 0.11714585
-0.037192028 0.137187 0.10465607 -0.046007898 -0.0711599 0.020078676 -0.023488345 0.13443655
-0.026572803 -0.10369902 0.0907917 -0.041406896 0.01918032 -0.05080415 -0.03337171 0.041621666
-0.02859757 0.06472909 0.14436197 0.11851846 0.11928949 0.09719202 0.025478587 -0.056859113
0.17761435 0.055251412 0.0825095 0.13539042 0.07289724 0.099920206 -0.025048895 0.15455382
0.103828736 0.12982439 0.1398958 0.09583547 -0.08970885 0.013624698 0.13960756 0.09076665
-0.0044462844 0.08299014 0.06838905 -0.033189833 -0.058695834 0.0961253 -0.033662483 0.049858756
-0.051087428 -0.050165582 0.022227315 0.11222644 -0.0838192 0.16550504 -0.062732704 0.10030504

bias_hh_l0 f4 [256]
00000000: 5b0a babd f72c 283d 9e85 77bc 9cce e83b
00000010: f8b5 24bd 7461 dcbc 6428 a6bd 50e9 8c3c
00000020: 0b37 883d d4a4 7c3d 42f4 09bc 5061 233d
00000030: 8a47 e4bd 8a1d 81bd 7a06 453d daca 413c
00000040: 790f 1fbd 01cf 9cbd 2bd7 e7bd fc4b c13d
00000050: 5e70 ba3d 5d64 9d3d bc10 23be 258d 86bd
00000060: 416d d63d f691 4d3d 0faf 5b3d 7a96 93bd
00000070: 5a08 ffbd f6f9 bebd a2c3 5d3d 92bd 0abd
00000080: 52d9 25bd ab30 6dbc e227 a43d 918d 9fbd
00000090: 6a93 5abd 7eef 083e a1d9 3fbd e31a 903d
000000a0: 8cf8 143d bf32 e03c 31e3 793d a76e ffbd
000000b0: 2f5d 203d a872 dfbc d6b3 02bd 1d75 cfbd
000000c0: fdf5 073e 50ed 46bb bdf2 ac3d 1bba 4fbd
000000d0: 9665 913d 89f6 9c3c 3dd8 3fbd 5b57 693d
000000e0: 506f ecbd 8fe4 1a3d e8e5 84bd a643 523d
000000f0: 3273 403d 9f9a 3d3d 7319 12bd 723a 33be
00000100: c35a c0bd ab38 143d a2a3 d63d f9fc c53d
00000110: 1eef edbd b5da f1bd bae0 aa3d 0101 c6bc
00000120: d8a8 23bd eb06 0b3e 5239 8c3d 5889 143e
00000130: c48d cc3d 458e 75bd 59e7 ce3d 9ced 14be
00000140: b39d f1bd 8c73 843d aa64 dcbb adaa f4bd
00000150: 06b3 ed3d 3bff bebd d08c bdbd 0b18 863d
00000160: f0d8 57bd 0711 723b 6666 14be 54cc be3b
00000170: ba0d c93d 8d2c 36bd 4af5 9bbd ddbd b2bc
00000180: 8246 3ebd e921 29be 711d 88bd db04 dc3d
00000190: 1461 8c3d e6a7 d33d ba65 d63d 00a2 4abd
000001a0: 542d 53bd 6d78 45bd e8ef 05be 4119 223d
000001b0: 86e5 983d 237e 0e3e a47b 0f3c 63d4 b7bd
000001c0: dbcc 3b3d 840b 25bd 628a adbd 09fd 11be
000001d0: 8646 cc3d 5eee 91bd 79d4 0c3e 308a 0f3e
000001e0: 82bc e1bd 39b0 c2bc 4059 debd f330 233d
000001f0: e7f7 ae3d cd2a 83bd 7432 643c 60b6 4cbc
00000200: 8966 9a3d ab80 603b c7ac 713d 23f7 933c
00000210: 97c6 d63d 57d4 a5bd cd1f 1abe 4774 81bd
00000220: 81d5 09bd 756c 753d 50ac 11be 04c9 a6bd
00000230: 702a 143e 94fd ed3c 41df ebbd ab6a f03c
00000240: 1ca0 31bd 8acb 9d3b c4f8 cd3d 2a74 6abd
00000250: 355f 7ebd 8ebb 15bd 87e3 a83d 2e05 f8bd
00000260: bca8 483e 29cd 833c 1982 4ebc a8ce cdbc
00000270: cd18 cfbb 9f65 c53d 8a94 df3a 9b76 d4bd
00000280: 7b8d b73d 183c e93d 35f8 6fbc f817 1ebd
00000290: a7fa 803c b8d8 e6bc 4f82 acbd 158f 08be
000002a0: 6dc3 943d c943 953d 4213 06bb 5220 55bc
000002b0: ca27 af3d 5750 be3d 4c2c a73d 028c ca3c
000002c0: 9ea2 7b3d 0900 433e af95 f0bc 66c2 f43d
000002d0: 3b39 06be c547 8cbc 98ce 033d db9e 0dbe
000002e0: 8291 66bd 4992 a13d 1260 dd3d 0bf9 e8bd
000002f0: 3344 903d b637 8d3c 5094 f0bd 31c3 4d3b
00000300: 6a43 bcbc 4b8f 0f3e 7f82 203e b42f 993d
00000310: da74 11bd fec1 063e c846 ff3c f11c 513c
00000320: dc96 083e 502c 86bc 1dba 663d 6a71 dc3c
00000330: e080 883d af55 aebd c103 2abe 2487 ff3d
00000340: ab92 203e 1581 b1bd 207d 91bd 036b 043d
00000350: f7e5 af3c 3c7e 833d dc25 d23d 1106 42be
00000360: 277d c53b f1f0 f43d ee6c fd3d 6e1e fbbc
00000370: c341 1e3b de8b 9e3c 7308 08bd 1f04 3d3c
00000380: 3f84 d43d 7c06 eb3d 5ae6 2dbd 14b0 8d3d
00000390: 64d6 fe3c 98cf 9dbb 5c35 95bd ac0a 9f3d
000003a0: 7b9c a23d 177d f33d 4665 533d 7e6d 883d
000003b0: 8cf3 99bd 27b1 9c3d cf65 e4bc aed2 07bc
000003c0: 999f 93bc 69c5 da3d b5f4 b63d 097f e43d
000003d0: 121e a83c f7f5 ef3d e0b6 5f3c a16d 4d3d
000003e0: f7f3 c83d c7ba 233e 9627 e33c b369 aabd
000003f0: d730 033c b3a2 0e3e b593 22bc c0ab 48bd
-0.090840064 0.041058507 -0.01510754 0.007104708 -0.0402126 -0.026901938 -0.08113173 0.017201096
0.066511236 0.06168063 -0.008420052 0.039887726 -0.111464575 -0.06304462 0.04810188 0.011828149
-0.038833115 -0.0765667 -0.11320337 0.09438321 0.091034636 0.076851584 -0.15924352 -0.0656989
0.10470057 0.050188027 0.053633746 -0.072064355 -0.12452765 -0.0932502 0.054141648 -0.033872195
-0.040490456 -0.014476935 0.080154195 -0.077906735 -0.05336324 0.13372609 -0.046838406 0.07036378
0.036369845 0.027367948 0.061007682 -0.12472277 0.039151367 -0.027276352 -0.031909786 -0.101297595
0.13277431 -0.0030353852 0.08444736 -0.050714593 0.07099454 0.019160526 -0.04683708 0.056968074
-0.11544669 0.037815627 -0.06489164 0.051334046 0.04698486 0.046290036 -0.0356688 -0.17502764
-0.093923114 0.036186855 0.10480429 0.09667391 -0.116178736 -0.11809293 0.083436444 -0.0241704
-0.039955944 0.13576858 0.068468705 0.14505517 0.09987977 -0.059950132 0.1010272 -0.14543766
-0.11797657 0.06467351 -0.0067258673 -0.11946616 0.11606412 -0.09326025 -0.092553735 0.065475546
-0.052697122 0.0036936419 -0.14492187 0.0058226977 0.09817071 -0.04447608 -0.076151446 -0.02181905
-0.04645396 -0.16516842 -0.066462405 0.107431136 0.06854454 0.103347585 0.104686216 -0.0494709
-0.0515569 -0.04821055 -0.13079798 0.039574865 0.07465653 0.13915305 0.008757506 -0.089760564
0.045849662 -0.040294185 -0.0847366 -0.14256682 0.09974389 -0.07125543 0.13752927 0.14017558
-0.11022283 -0.02376567 -0.10856867 0.039841603 0.08543377 -0.06404648 0.013928045 -0.012494653
0.07539088 0.003425638 0.059002664 0.01806218 0.10487097 -0.08097141 -0.15051194 -0.06321006
-0.03365088 0.059917886 -0.14225888 -0.081438094 0.14469314 0.02905158 -0.11517192 0.029347738
-0.043365583 0.0048155235 0.10057214 -0.05723969 -0.062102515 -0.03655582 0.082465224 -0.12110363
0.19595617 0.016089039 -0.01260426 -0.025122955 -0.006320095 0.09638523 0.0017057818 -0.10374185
0.08962532 0.11388415 -0.0146465795 -0.038597077 0.01574452 -0.028179511 -0.08423292 -0.13335831
0.07263837 0.072883196 -0.0020458256 -0.013008194 0.08552511 0.09292667 0.08162746 0.024724964
0.06143438 0.19042982 -0.02936825 0.11951141 -0.13107769 -0.017124066 0.032179445 -0.1383013
-0.05629111 0.0788923 0.108093396 -0.11375626 0.07044258 0.01723848 -0.11747038 0.003139686
-0.022981364 0.14019506 0.1567478 0.07479802 -0.03551183 0.1315994 0.03116168 0.012763248
0.13338798 -0.016378552 0.056329835 0.026909549 0.06665206 -0.085124366 -0.16602995 0.12476948
0.1568095 -0.086671986 -0.07103944 0.032328617 0.02147196 0.06420562 0.10261127 -0.18947627
0.006026882 0.119600184 0.12374292 -0.030654158 0.0024148084 0.019353803 -0.033211183 0.011536627
0.103767864 0.11475846 -0.04245601 0.0691835 0.031108089 -0.004816007 -0.07285568 0.077657074
0.079400025 0.11889093 0.051610254 0.06661509 -0.07517156 0.07650977 -0.027880577 -0.008289976
-0.018020438 0.10682184 0.08933393 0.111570425 0.020522151 0.11716836 0.013654441 0.05015338
0.098121576 0.15989219 0.027728837 -0.08320942 0.00800725 0.13929252 -0.009922911 -0.04899192

weight f4 [4, 64]
00000000: 5b49 82be e59b 123e 2a94 8dbe dbff 57be
00000010: 321a c33d 6d06 b83d 89d4 94be 3568 593e
00000020: 62e2 86be 9317 25be 97cc 903e a8bb 16be
00000030: 5ee3 8abe 9777 ccbd 95d3 16be 21af 553e
00000040: 88bf 91be d115 3b3e 7292 91be 38df 90be
00000050: 6479 48be 96f8 37be 2911 593e c01b 81be
00000060: 59ca 6fbe b6b1 863e 03e5 513e 5bcb 93be
00000070: aca6 543e 7337 773d 89dd 9c3e ce33 653e
00000080: 44ed 453e 5a7d acbe 11e1 693e 17e1 a53e
00000090: d6c0 edba 3d93 803e 37de 34be 8d34 a2be
000000a0: 7f12 573e a5ba 28be 308f 833e 857f 573e
000000b0: 326d 49be 387d 873e f842 6abe 4690 c43d
000000c0: 863d 633e 93cb 61be 9393 79be d3b9 443e
000000d0: 0aad 6ebe 1954 87be 2b5c aabe 5485 92be
000000e0: 6804 c33d 7540 633e 6054 c13d b116 56be
000000f0: c90a 553e 0f1c 6abe cd76 91be 7c4c 7b3e
00000100: c2d7 8fbe 6e16 963e 8968 03be 5504 1dbe
00000110: 5d9e 0d3e 28a6 843e 7926 8abe e9dd 8b3e
00000120: 26b5 18be 0941 86be 0c9f 5b3e e432 73be
00000130: 1dd0 1abe aeba 98be e52c 98be d9ac 943e
00000140: 0d4b c5bd 71d6 8f3e a6b4 aebd 4981 7cbe
00000150: 76d2 8cbe a17f 89be 783b 923e f25f 6bbe
00000160: f139 26be 0dd2 3b3e 0bb5 743e 86f4 98be
00000170: 83fb 723e 9dab 353e fd7a 923e b2ff 573e
00000180: 5639 9e3e be37 9dbe ea5e 763e d439 5c3e
00000190: a0bf 53bd 1aee 123e 391f 83be d5ba 6abe
000001a0: d982 863e cabe 79be a119 103e e35d aa3e
000001b0: 8f66 e7bd 4a81 773e 0596 19be 6a87 673e
000001c0: b270 9a3e afa9 4ebe b9f9 fabd 4640 893e
000001d0: b443 9abe ed84 81be f3eb 3cbe 00df a0be
000001e0: 58fb b83d e596 6f3e b105 7d3e c3cb 72be
000001f0: 13a5 8d3e 5612 88be 810b f7bd 6ee8 d93d
00000200: 09c1 91bd f9f4 c43d e118 85be 7425 40be
00000210: 9da5 873e 0ff6 923e 6993 22be 7bec 783e
00000220: a980 48be dc62 47be 6d8f 103e c32d 02be
00000230: 12b7 2bbe 9088 94be aeac 5cbe 78f7 523e
00000240: 9da8 80be 65db 373e e292 49be d456 6fbe
00000250: fcf8 4cbe 64ce 45be bce9 6b3e 1b9a 7ebe
00000260: ea84 11be cba3 333e 5afd fc3d ce39 79be
00000270: 8182 703e 005a 7f3e c0a5 733e a5a7 d53d
00000280: 424b fe3d d4e6 88be 7822 773e 38b4 833e
00000290: a9fa 96bc 61cb 283e 8a1b 64be 7a75 2bbe
000002a0: 72f5 a23e ce22 5bbe 4ccb 6d3e ff3a 1c3e
000002b0: 53f4 8fbe 91db fa3d db8d 9bbe a289 593e
000002c0: 584d 8d3e d04c 5ebe 1dff 08be 2ec9 4d3e
000002d0: daa3 52be 0df1 8dbe a0e0 2abe 9810 8dbe
000002e0: 7267 91bd 7130 9b3e abb2 3c3e 3833 80be
000002f0: c78e 8f3e 1b9d 8bbe 688e 8dbe 7ab6 a93e
00000300: 9b85 50be 80a7 833e 94ed 60be 91f6 7fbe
00000310: f84c 9c3e 6ec4 223e a3d5 8bbe 0e6b 7c3e
00000320: d911 81be ba48 71be efa9 283e 2ab0 91be
00000330: 6110 81be 2495 09be 5589 45be 5d6e 703d
00000340: 48dc 9abe 31a8 223e 236a 6fbe 489b 82be
00000350: 720a 25be 8bbc 85be 1bf3 823e a054 afbd
00000360: 8937 8ebe 179e 303e 8023 583e 7022 8abd
00000370: 222d 6e3e 08a2 843e a9eb b13d 3cb8 8c3e
00000380: 7d6b 183e 4cff 69be 86e1 5f3e 278c ab3d
00000390: a01c 91bc f3e7 8d3e 9bda 91be db3f 67be
000003a0: ee7e 863e 3779 77be 0fd5 8b3e 69c3 8b3e
000003b0: e75d 82be 28f9 a73e 2b9a 8ebe 7bb4 a33e
000003c0: 61be 7e3e 1c0b 07be e9d4 7cbe 6088 6e3e
000003d0: bc5c 4fbe 8bf1 3abe a401 87be ce64 5fbe
000003e0: de16 a6bc 4e0c 9a3e 598d 1b3e d8cf 0ebe
000003f0: 53ed b33d 0632 9dbe a97e 4ebe 6eec 003e
-0.2544659 0.14317282 -0.27652103 -0.21093695 0.09526481 0.089856006 -0.290684 0.21231158
-0.2634459 -0.16122274 0.2828109 -0.14720023 -0.27126592 -0.099837475 -0.1472915 0.20867588
-0.2846644 0.18270041 -0.2843204 -0.28295302 -0.19577557 -0.17965922 0.21197952 -0.25216484
-0.23417033 0.26307458 0.20497517 -0.28866085 0.20766705 0.060355615 0.30637768 0.22383043
0.19328791 -0.33689386 0.22839762 0.32398292 -0.0018139135 0.25112334 -0.17662893 -0.31680718
0.2100315 -0.16477449 0.2569518 0.21044739 -0.19670561 0.26462722 -0.22877109 0.095978305
0.22191438 -0.22050314 -0.24372701 0.19211511 -0.23308197 -0.2643135 -0.33273444 -0.28617346
0.09522325 0.22192557 0.094399214 -0.20907094 0.20804895 -0.22862266 -0.2841095 0.24540895
-0.28094298 0.29313987 -0.12832846 -0.15333684 0.13829942 0.25908017 -0.26982477 0.27317742
-0.14912853 -0.26221493 0.2144739 -0.23749882 -0.15118451 -0.29829925 -0.29721752 0.29038122
-0.096334554 0.28093293 -0.0853055 -0.24658693 -0.2750432 -0.26855186 0.28560996 -0.22985819
-0.1623304 0.18341847 0.23897187 -0.29874057 0.23728757 0.17741247 0.28609458 0.21093634
0.3090312 -0.3070659 0.24059644 0.21506435 -0.05169642 0.14348641 -0.25609758 -0.22922833
0.26271704 -0.24389187 0.14072277 0.33274755 -0.112988584 0.24170414 -0.14998634 0.2261025
0.30164105 -0.20181917 -0.12254662 0.2680685 -0.30129778 -0.25296727 -0.18449382 -0.31420135
0.09032315 0.23397405 0.24709202 -0.23710541 0.27665004 -0.2657649 -0.12062741 0.106400356
-0.07116897 0.09617037 -0.25995544 -0.18764287 0.2649354 0.28703353 -0.15876545 0.2430896
-0.1958033 -0.19471306 0.14117213 -0.12712769 -0.16769055 -0.2901044 -0.21550247 0.20602214
-0.25128642 0.17954786 -0.19684938 -0.23372966 -0.20016855 -0.19317013 0.23038381 -0.24863474
-0.14210859 0.17542951 0.123530105 -0.24338457 0.23487283 0.24936676 0.23793697 0.10432366
0.12416698 -0.26738608 0.24134243 0.25723433 -0.018430071 0.16483833 -0.2227613 -0.16744033
0.31827885 -0.21399996 0.23222083 0.1525688 -0.28116092 0.1224891 -0.30381665 0.21243909
0.2759807 -0.21708989 -0.13378568 0.20096275 -0.20570317 -0.2772297 -0.1668725 -0.27551723
-0.07099809 0.30310395 0.18427531 -0.25039077 0.28038618 -0.272683 -0.2764771 0.3314703
-0.20363466 0.2571373 -0.21965629 -0.24996401 0.30527472 0.15895244 -0.2731143 0.24650213
-0.2520893 -0.23562899 0.16471075 -0.28454715 -0.2520781 -0.13435799 -0.1929067 0.058699
-0.30246186 0.15884472 -0.23380332 -0.25509095 -0.16117266 -0.2612041 0.255761 -0.08561063
-0.27776745 0.17247806 0.21107292 -0.0674485 0.23259404 0.2590487 0.08687527 0.2748431
0.14884754 -0.22851294 0.21863374 0.08376341 -0.017713845 0.27716026 -0.28487095 -0.22582953
0.26268715 -0.24167334 0.27310988 0.27297524 -0.25462267 0.3280728 -0.27851996 0.31973633
0.24877311 -0.13187832 -0.24690594 0.2329421 -0.20250219 -0.18256204 -0.2636844 -0.21815798
-0.020274576 0.30087513 0.15190639 -0.13946474 0.087855004 -0.30702227 -0.20165505 0.12590191

bias f4 [4]
00000000: 5492 1c3e 259d b53d d18f af3d 88f9 383e
0.15290195 0.088678636 0.08572353 0.18063939
